audio_denoising_chpt.pth (torch, 654363 bytes, 107 tensors)

outer_shallow_features.weight f4 [12, 1, 3, 3]
000000 3c 62 ef 3d 2b b1 0d 3e ac 26 e7 3d 79 eb ca be
       0.116886586 0.13837115 0.11286673 -0.39632776
000010 00 c3 9f be db 18 a4 3e 06 c6 3d be 94 2a 8a bc
       -0.3120346 0.32050213 -0.18532571 -0.016866006
000020 ef b7 85 3e c8 82 64 be 1f 8f 3e bd 4c 5f ab 3c
       0.26116893 -0.22315514 -0.04652321 0.020919465
000030 66 24 9e be 0d 27 76 3d 5d 75 42 bd 71 4a c2 3c
       -0.30887145 0.060095835 -0.047475208 0.023717137
000040 e7 18 d1 3e be 41 e2 3d ee 85 67 bc fa 1c 9c bd
       0.4083931 0.110476956 -0.014131052 -0.07622714
000050 a2 8d 3c 3e ca 86 04 be 00 8f 32 be 8c e2 44 3e
       0.18413404 -0.12942043 -0.17437363 0.19227046
000060 43 c4 53 be d8 3e a2 bd 68 aa 9b 3e 24 ec f0 bd
       -0.20680337 -0.07922143 0.30403447 -0.1176379
000070 27 89 7d 3e 3f 0e 7d 3e 93 d6 ce bd f1 46 85 3d
       0.2475935 0.24712466 -0.100995205 0.065076716
000080 7c db 1b be 6c 63 34 be 66 d2 f7 3c 0d e4 9d be
       -0.15220445 -0.17616051 0.030251693 -0.3083805
000090 c1 a5 d5 3c c9 90 b4 bd a7 23 b7 bd b8 02 43 3e
       0.026080014 -0.08816678 -0.08942347 0.19044006
0000a0 fa 5a de be c8 84 d7 3c 20 13 38 be c2 ee 50 be
       -0.43428785 0.026308432 -0.17976046 -0.20403579
0000b0 93 92 2b 3e 34 06 96 be 05 f9 96 3c 26 30 85 be
       0.16755132 -0.29301608 0.018429289 -0.26013297
0000c0 8a 86 1d be 3c 25 89 be 27 2d 7e be 5e e7 f4 bd
       -0.15383354 -0.2678622 -0.24821912 -0.11958192
0000d0 fb 20 87 3e 9a 1a 93 3e 98 4d ad 3d ab 8d 8e be
       0.2639235 0.28731233 0.084620655 -0.2784246
0000e0 18 02 a2 be 00 0a 95 3e e7 ad 06 3e 9f 35 88 be
       -0.31642222 0.29109192 0.13152276 -0.2660341
0000f0 02 2f f3 3d f1 05 38 3e 70 2f d1 bb 2d 06 b7 3e
       0.118742004 0.17971016 -0.006383829 0.357469
000100 11 22 fd 3d f3 bf 57 3e d6 3a 56 3e dc 32 af be
       0.12360013 0.21069317 0.20920882 -0.3421849
000110 c7 7c 11 be 4f 9f dc bd 1c 0a 38 be 73 00 ae be
       -0.14207755 -0.10772573 -0.17972606 -0.33984718
000120 58 7e 9b be 01 70 83 bc 34 94 e2 bd 8e 03 9c bd
       -0.3036983 -0.016044619 -0.11063424 -0.076178655
000130 55 74 2a 3d 32 d8 43 be f5 c1 a8 3e 47 6d d0 bc
       0.04161485 -0.1912544 0.32960477 -0.025442732
000140 ee cc a1 3e 68 54 1f be 96 a9 84 bd cd e5 03 3e
       0.3160166 -0.15559542 -0.064776585 0.12880631
000150 71 93 27 3d 71 db 77 be 88 2c 24 be 5a 20 7e 3e
       0.040912095 -0.24204804 -0.16032612 0.24817029
000160 c2 ad 4e 3e 83 53 9a bc 58 4e 24 be 88 72 df 3b
       0.20183471 -0.01883865 -0.16045511 0.006819073
000170 3d 69 12 3e e0 52 23 3e 81 48 d8 bc 87 f8 e9 bd
       0.14297958 0.15949583 -0.02640176 -0.11424356
000180 86 7f 9f 3d 9c 28 82 bd 11 ff 8a bc 24 b4 2e 3e
       0.07787995 -0.06355402 -0.016967328 0.17060906
000190 90 5d db bb 50 ea dc bd 6e 2b be bd 90 3a b1 3c
       -0.006694503 -0.10786879 -0.09285627 0.02163437
0001a0 48 db 3c bd 7b c1 de bd a8 38 45 3d 77 9d 0a 3e
       -0.04610756 -0.10876747 0.048149735 0.1353663

outer_shallow_features.bias f4 [12]
000000 f7 5f 8c 3c 0f b9 e9 3c c7 c4 10 3d 8a 2e 03 3e
       0.017135603 0.028530626 0.03534391 0.12810722
000010 30 50 53 3e c8 f4 69 3e 15 3c 35 bc 13 4d 8e 3d
       0.20636058 0.22847283 -0.011061688 0.069482945
000020 56 fd 1a 3d 89 e8 0b 3b 2f 18 aa bb b1 84 28 3a
       0.037839256 0.0021348319 -0.005190871 0.0006428464

inner_shallow_features.weight f4 [12, 12, 3, 3]
000000 e7 b4 22 3b b1 1a 8c bc 98 fb 6d 3d d7 9e cd 3d
       0.0024827064 -0.017102571 0.058101267 0.10040062
000010 64 17 0b 3c a4 9d 24 3d 79 94 8d 3d 0d 90 a8 bd
       0.0084894635 0.0401894 0.069130845 -0.082306005
000020 7a 68 90 bd 81 14 41 3c 10 a9 fa bd 6e 7d da 3c
       -0.07051177 0.011784674 -0.12239277 0.026671138
000030 0f 1f bd 3d ee dd 3b bc f3 fd bc 3d 9a 96 f9 3c
       0.092344396 -0.011466486 0.092281245 0.03046732
000040 34 63 16 bd 3f a0 f7 bb 96 6d 5b 3c ca 3f 98 3b
       -0.0367157 -0.0075569446 0.013392827 0.004646276
000050 5f 86 ea 3c 1e de 60 3d 90 0d 13 bb 21 6e ae bb
       0.028628526 0.054899327 -0.0022438504 -0.005323187
000060 24 76 8e 3d 1b 39 38 bd 09 4e bd bc a1 8a 31 3d
       0.06956127 -0.044976335 -0.0231085 0.043345097
000070 1c c5 8d bd 80 e4 9d 3d 00 f3 4d bc 45 b5 9f bd
       -0.06922361 0.077095985 -0.012570143 -0.07798246
000080 bb bd 92 3d 72 c0 fe bc f6 1f ef bc 59 ac 21 3d
       0.071650945 -0.031097624 -0.029190045 0.039471004
000090 e6 e8 c1 bc 46 bc 4c 3d 8b 83 89 bd 7c ac 3f bc
       -0.023670625 0.04998424 -0.06714543 -0.011698838
0000a0 6d 1f 87 3a 13 b2 7e bd 3b b6 41 3d 8a 9f 4b bc
       0.0010309048 -0.062181544 0.04729293 -0.012428174
0000b0 fa a4 26 ba 8e 51 0a bd b1 12 f8 bd 08 f0 db bc
       -0.0006356981 -0.033769183 -0.1211294 -0.026847854
0000c0 de 15 f7 3d 60 7a 74 b9 3b d1 82 3d 0a 74 94 3d
       0.12064718 -0.00023315242 0.06387564 0.07248695
0000d0 b3 d2 d0 bc a7 f2 ee 3c cb 64 a3 bc b2 ca 38 3b
       -0.025491094 0.02916844 -0.019945523 0.0028196988
0000e0 27 ff ca bd 3d f2 4f bd f6 70 1e 3d ad c4 9f bd
       -0.09911948 -0.050768126 0.038681947 -0.07801185
0000f0 9e 9d 87 bd ec 87 8c 3d bc 93 d1 3b f5 d9 77 bc
       -0.0662186 0.068618625 0.006395785 -0.015127649
000100 2c 26 a3 3d d6 b0 f9 bc f5 c4 c1 bd 40 f3 0d 3d
       0.07966265 -0.03047983 -0.09461395 0.03465581
000110 cc cd 56 bd 4d 02 f5 bd 6f f7 3d 3b 99 34 07 bd
       -0.052442357 -0.119633295 0.0028986593 -0.033009145
000120 c5 ce 3a bd 1b 24 3d bd cd 82 82 bd b0 5d a0 3d
       -0.045607347 -0.04617701 -0.063726045 0.078303695
000130 60 75 d7 bc ca 53 6f 3d ea 3d 89 3d 30 d6 4e bd
       -0.026301086 0.058429517 0.06701262 -0.050497234
000140 5d 5b 7c 3d d8 b0 35 bd 4f 8e 05 3c 61 22 8c bd
       0.06161057 -0.044358104 0.008151605 -0.06842495
000150 97 de 13 3c a2 45 9c 3d 7f d2 5f 3d 34 e6 d4 bc
       0.0090252375 0.07630469 0.054644104 -0.025988676
000160 6d b8 5f bc 5e fd 65 3c a9 8c 06 bc 18 90 0a 3d
       -0.01365481 0.014037458 -0.008212247 0.033828825
000170 d4 a4 f8 bc 32 03 95 bc 4a 8a fd 3b d8 62 3e 3c
       -0.030352034 -0.01819 0.0077374326 0.011620246
000180 b9 4e 4e bc 39 7e 81 bb 2a 92 24 3d 4f 7a 27 3b
       -0.012592011 -0.0039518145 0.040178455 0.002555508
000190 f1 78 e7 bc 51 46 e1 3b 19 6f 18 3d dd 5c 21 3c
       -0.028255912 0.0068748374 0.037215326 0.0098488005
0001a0 01 c5 94 bc 4e a9 ef bb bf 3f 4d 39 e6 04 0c bd
       -0.018160345 -0.007313884 0.00019574071 -0.03418436
0001b0 2b 0d 15 3d 31 fd 4f bc 4d 7d 18 bd e3 2e 40 3d
       0.03638951 -0.012694643 -0.03722887 0.046919715
0001c0 72 a2 70 3d c8 ab 6b 3d 0c 39 01 bd d8 09 90 bc
       0.05874867 0.05753687 -0.031548545 -0.017582819
0001d0 21 bd a8 3c 08 ff ee 3c 89 9e 21 bd 13 d1 14 bb
       0.020597996 0.029174343 -0.03945783 -0.0022707626
0001e0 e4 55 40 3d 79 00 d3 bc 52 76 86 3c df 25 00 3d
       0.04695691 -0.025757061 0.016413841 0.031286117
0001f0 a9 73 de bc 78 5b cf 3c 10 f4 06 3d eb f8 ea b9
       -0.02715476 0.02531217 0.0329476 -0.00044817416
000200 9e f4 88 3c b5 62 c5 3c 6c 1a a3 3c 8d 32 2b bb
       0.016718205 0.024094919 0.01991006 -0.002612266
000210 93 35 26 bc 28 77 d7 bb 9b 18 ca 3c c2 a7 31 3d
       -0.010144609 -0.006575484 0.024669936 0.043372877
000220 8f 22 82 bb 9f 75 a9 3d 89 82 60 3d b1 9d 74 bb
       -0.003971405 0.082743876 0.054811988 -0.0037325437
000230 e0 1e a4 3c 42 a1 5f 3c 97 8d c5 bd 7c 2b 9e bc
       0.020034254 0.013649287 -0.09646147 -0.019307844
000240 c3 23 6c 3d 59 9f ed 3d 22 aa 49 3d 61 91 13 3d
       0.057651293 0.11602659 0.049234517 0.036027316
000250 2f 57 b5 3d 75 cf 26 3d ec 69 dd bc ee f8 a9 3c
       0.088545196 0.04072519 -0.027028047 0.020748582
000260 af 80 95 3d 36 83 38 3e 81 91 b6 3d ba 9b fe 3d
       0.07299935 0.18018803 0.089144714 0.12432046
000270 15 02 14 3e 23 a0 1d 3d 9e ce d8 3d 2c 40 02 3e
       0.14453919 0.038482796 0.10586284 0.12719792
000280 74 38 8c 3d 2a 08 42 3d 70 1b f9 bc d3 e1 8c 3c
       0.06846705 0.047371067 -0.030408591 0.017197525
000290 42 16 d6 3b 87 fb 27 bd 23 3c a0 bd 49 d9 a7 bc
       0.006533415 -0.04101136 -0.0782397 -0.020489352
0002a0 74 28 43 3c 18 b4 ed 3c 09 62 5c bd 29 98 63 3c
       0.0119115 0.02901654 -0.05380443 0.013891258
0002b0 86 43 03 bb 5d 87 99 3d 4f e0 60 bc 15 7c 05 3d
       -0.002002926 0.074965216 -0.013725354 0.032589037
0002c0 9a c1 1d 3d db c5 b4 bd d6 ad e4 bc 26 5d cf bd
       0.03851471 -0.088268004 -0.027914923 -0.101251885
0002d0 62 6c 02 bd 00 47 6b 3c d5 88 85 bb 98 e3 b6 3c
       -0.031841643 0.014360189 -0.0040751495 0.022325322
0002e0 84 a7 ca bc 19 a1 7b bc ed ca f5 3c c4 45 6c bb
       -0.02473808 -0.015358233 0.03000399 -0.0036052326
0002f0 1f 88 e0 3c f0 fb 12 bd 78 e7 e8 bc 46 c9 02 bc
       0.027408658 -0.035884798 -0.028430685 -0.007982558
000300 22 a6 01 3d 63 b9 33 3c fd ba 5c bb ba 98 90 3c
       0.031652577 0.010969493 -0.003368079 0.01765095
000310 93 83 a2 3c 80 23 8a bc c8 d8 8d bc 90 d7 ad 3b
       0.01983813 -0.01686263 -0.017315283 0.005305238
000320 f7 17 39 3c 74 0c bf 39 5c fe c2 3b 46 ba 3f bc
       0.011297218 0.00036439637 0.005950732 -0.011702126
000330 20 c1 4d 3c f2 b4 5e 3c c7 9a 2a bc ab 76 3c bb
       0.012558252 0.013592945 -0.010412878 -0.0028757255
000340 c3 ca a5 bb 04 83 4c bc 2c 00 f3 b8 59 04 f6 3b
       -0.0050595715 -0.012482408 -0.00011587175 0.0075078425
000350 ff c9 f6 3c 63 31 85 bc ad 25 5f bc 11 e5 48 3c
       0.030125616 -0.016258901 -0.013619822 0.012261645
000360 13 0c f2 3d e2 ba 01 bd f2 41 ff bd ee 41 b3 3d
       0.11818709 -0.031672366 -0.1246375 0.087528095
000370 a8 78 e4 bd 99 29 8a bd 3e 0c b3 bd 94 bf b8 bd
       -0.11155826 -0.067462154 -0.087425694 -0.09020916
000380 1f 7e e3 3b c8 40 8c bc b3 44 4c 3e 3c 38 8b bd
       0.006942525 -0.017120734 0.19948082 -0.06797835
000390 c8 c3 54 3b 7d 9b 71 3d 1a f9 60 be 54 89 d6 3c
       0.0032465328 0.058986176 -0.21970025 0.02618853
0003a0 84 5e 82 3c 44 81 20 bd 64 90 dc 3d 39 b4 ac bc
       0.01591421 -0.039185777 0.10769728 -0.02108203
0003b0 fa fa b4 bd 91 07 84 3d 99 0d 12 be e1 ae 48 bd
       -0.088369325 0.06446756 -0.14263 -0.048994903
0003c0 3b fa 00 bd 8b 35 c6 bd 53 67 40 bc c7 5b dd bd
       -0.03148864 -0.09678181 -0.011743384 -0.10808521
0003d0 0c 4b 01 3e 2a ee db bc 1a 15 a9 bb 11 d7 61 3e
       0.12626284 -0.026846964 -0.005159986 0.22054698
0003e0 d3 ab 08 3d d2 03 93 3c c2 bc 9b 3c 0a c5 16 be
       0.03336699 0.017946158 0.019010905 -0.14723602
0003f0 dd b2 70 3e ca 23 fc bd 30 ac 38 bd 31 c2 42 3d
       0.23505731 -0.12311514 -0.045086086 0.047548477

inner_shallow_features.bias f4 [12]
000000 40 12 75 bb 5c 96 b3 3d e9 24 85 bb 5a 52 ae 3a
       -0.003739491 0.08768913 -0.004063238 0.0013299689
000010 b6 c0 3c 3a 6d 8e 8b 3c 0a 01 4b bb 8b 1d bc bc
       0.0007200347 0.017035687 -0.003097596 -0.022963306
000020 56 65 c2 3c d6 c0 34 bd 94 7a da 3b 61 a4 84 bc
       0.023729961 -0.044129215 0.0066674445 -0.016191663

residual_dense_blocks.0.dense_layers.0.conv.weight f4 [10, 12, 3, 3]
000000 f4 c4 00 00 ba 05 01 80 84 81 00 00 8e 20 00 80
       7.0653e-41 -9.389e-41 4.6461e-41 -1.1678e-41
000010 87 b1 00 80 8a 90 00 00 bd dc 00 80 7f d0 00 00
       -6.3685e-41 5.1851e-41 -7.9186e-41 7.4794e-41
000020 39 b0 00 00 e0 3c 00 80 50 3f 00 00 50 7f 00 80
       6.3217e-41 -2.1838e-41 2.2712e-41 -4.5671e-41
000030 40 25 00 00 0f c0 00 00 5a 7d 00 80 82 60 00 80
       1.3363e-41 6.8898e-41 -4.4968e-41 -3.462e-41
000040 17 18 00 80 7f 43 00 00 ca 44 00 80 ca 16 00 00
       -8.642e-42 2.4213e-41 -2.4677e-41 8.175e-42
000050 89 a0 00 00 8f 0f 00 80 46 05 00 80 ff c7 00 00
       5.7589e-41 -5.581e-42 -1.892e-42 7.1745e-41
000060 ef c3 00 00 20 2a 00 00 00 2d 00 00 0b 76 00 80
       7.0288e-41 1.5112e-41 1.6143e-41 -4.2346e-41
000070 3f 6d 00 00 99 33 00 00 fa d1 00 00 f2 c3 00 80
       3.919e-41 1.851e-41 7.5325e-41 -7.0292e-41
000080 27 27 00 80 f9 79 00 80 01 5c 00 00 ea dd 00 80
       -1.4045e-41 -4.3756e-41 3.3005e-41 -7.9608e-41
000090 1b 40 01 80 0f 30 00 00 0c aa 00 00 1a e1 00 00
       -1.14832e-40 1.724e-41 6.1001e-41 8.0751e-41
0000a0 60 3e 01 00 4a 0f 01 80 fa b7 00 80 ad 50 00 00
       1.14211e-40 -9.732e-41 -6.5998e-41 2.8941e-41
0000b0 f1 e2 00 80 82 7c 00 80 91 8c 00 00 46 e1 00 80
       -8.1411e-41 -4.4665e-41 5.0426e-41 -8.0813e-41
0000c0 70 6e 00 80 b5 c6 00 80 90 ad 00 00 ad e7 00 80
       -3.9618e-41 -7.1283e-41 6.2262e-41 -8.311e-41
0000d0 61 5b 00 00 df 11 00 00 69 74 00 00 bd fd 00 00
       3.278e-41 6.411e-42 4.176e-41 9.1024e-41
0000e0 b8 da 00 00 18 f7 00 80 68 c1 00 00 25 bf 00 80
       7.8462e-41 -8.864e-41 6.9381e-41 -6.857e-41
0000f0 30 0c 01 80 ae b7 00 00 2c c0 00 00 b8 24 00 80
       -9.6208e-41 6.5892e-41 6.8938e-41 -1.3172e-41
000100 81 03 00 00 03 7d 00 80 99 97 00 80 a5 58 00 00
       1.257e-42 -4.4846e-41 -5.4383e-41 3.18e-41
000110 4c 8c 00 80 cb 2d 00 00 00 4f 00 80 6d 8d 00 00
       -5.0329e-41 1.6427e-41 -2.834e-41 5.0734e-41
000120 e5 74 00 80 03 0b 01 80 5b d4 00 00 fa bc 00 00
       -4.1934e-41 -9.5786e-41 7.6179e-41 6.7792e-41
000130 86 e5 00 00 c3 9a 00 80 ce a4 00 00 47 94 00 80
       8.2337e-41 -5.5518e-41 5.9121e-41 -5.3192e-41
000140 cb 1d 00 00 6c 13 00 00 88 af 00 00 27 80 00 80
       1.0688e-41 6.967e-42 6.2969e-41 -4.5972e-41
000150 eb 00 00 00 73 4a 00 80 15 8d 00 00 e4 a8 00 80
       3.3e-43 -2.6707e-41 5.061e-41 -6.0587e-41
000160 fa 39 00 00 93 84 00 80 60 2c 00 00 ee 05 00 00
       2.0798e-41 -4.7559e-41 1.5919e-41 2.127e-42
000170 38 82 00 00 fc 60 00 00 e2 ca 00 00 e6 01 00 80
       4.6714e-41 3.4791e-41 7.278e-41 -6.81e-43
000180 be 0f 00 00 b4 cb 00 80 97 c4 00 80 c5 51 00 80
       5.647e-42 -7.3075e-41 -7.0523e-41 -2.9333e-41
000190 c2 30 00 00 8f bf 00 00 35 72 00 80 c4 a7 00 80
       1.7491e-41 6.8718e-41 -4.097e-41 -6.0183e-41
0001a0 8a 5b 00 80 c0 7b 00 80 4c 8d 00 80 98 a8 00 00
       -3.2838e-41 -4.4393e-41 -5.0688e-41 6.048e-41
0001b0 08 1b 00 80 1a 33 00 00 d8 d4 00 80 d1 81 00 80
       -9.697e-42 1.8332e-41 -7.6354e-41 -4.657e-41
0001c0 5c 34 00 80 24 ff 00 80 9e d1 00 00 34 ec 00 80
       -1.8783e-41 -9.1527e-41 7.5196e-41 -8.4734e-41
0001d0 45 04 00 80 c1 83 00 80 cd 2c 00 00 0a 57 00 80
       -1.532e-42 -4.7264e-41 1.6071e-41 -3.1224e-41
0001e0 b0 c9 00 80 4c 5b 00 00 12 88 00 00 71 9f 00 80
       -7.2352e-41 3.2751e-41 4.8813e-41 -5.7197e-41
0001f0 33 03 00 80 b3 70 00 80 a0 7e 00 00 c5 c3 00 80
       -1.148e-42 -4.0429e-41 4.5424e-41 -7.0229e-41
000200 93 59 00 00 f3 15 00 00 fe 18 00 00 f6 a7 00 80
       3.2133e-41 7.874e-42 8.966e-42 -6.0253e-41
000210 7a ea 00 00 32 43 00 80 a6 61 00 00 5b 9e 00 80
       8.4114e-41 -2.4105e-41 3.503e-41 -5.6807e-41
000220 a7 f3 00 00 3f 80 00 80 4d 3c 00 00 b5 14 00 80
       8.7406e-41 -4.6006e-41 2.1632e-41 -7.428e-42
000230 d9 f1 00 80 94 5d 00 00 f0 d5 00 80 c5 d1 00 80
       -8.6759e-41 3.357e-41 -7.6746e-41 -7.5251e-41
000240 90 8a 00 00 33 0d 01 00 f3 fb 00 00 3b 1f 01 00
       4.9707e-41 9.657e-41 9.0382e-41 1.03039e-40
000250 6a e5 00 80 d4 90 00 00 06 65 00 80 69 70 00 80
       -8.2298e-41 5.1955e-41 -3.624e-41 -4.0325e-41
000260 17 50 00 00 c9 74 00 00 94 1c 00 80 cb 03 01 80
       2.8731e-41 4.1895e-41 -1.0252e-41 -9.3196e-41
000270 f8 69 00 80 7f e3 00 00 7e 06 01 00 cd 6b 00 00
       -3.8014e-41 8.161e-41 9.4164e-41 3.8672e-41
000280 70 7c 00 80 39 33 00 80 02 2a 01 00 43 df 00 00
       -4.464e-41 -1.8375e-41 1.06905e-40 8.0091e-41
000290 cc c3 00 00 34 13 00 80 9a 8b 00 00 88 8b 00 00
       7.0239e-41 -6.889e-42 5.008e-41 5.0054e-41
0002a0 a6 e2 00 80 85 4c 00 00 7a 59 01 80 bf c7 00 00
       -8.1306e-41 2.745e-41 -1.23934e-40 7.1655e-41
0002b0 ae bf 00 80 8d c2 00 80 ba 52 00 00 ac 73 00 80
       -6.8762e-41 -6.9792e-41 2.9677e-41 -4.1495e-41
0002c0 4d a0 00 80 ba 62 00 00 76 62 00 00 6e 9f 00 00
       -5.7505e-41 3.5416e-41 3.5321e-41 5.7193e-41
0002d0 d7 b4 00 00 54 69 00 00 38 04 01 00 be 18 00 00
       6.4873e-41 3.7785e-41 9.3349e-41 8.876e-42
0002e0 e4 3a 00 80 b2 6e 00 00 5c b3 00 00 dd 09 00 80
       -2.1126e-41 3.971e-41 6.4342e-41 -3.538e-42
0002f0 0e 6e 00 00 d3 8b 00 00 31 30 00 80 f8 68 00 00
       3.948e-41 5.016e-41 -1.7288e-41 3.7656e-41
000300 99 00 00 00 15 bd 00 80 e8 bb 00 00 20 5b 00 80
       2.14e-43 -6.783e-41 6.7408e-41 -3.269e-41
000310 97 0a 00 80 c2 73 00 00 6f c4 00 80 42 24 00 80
       -3.799e-42 4.1526e-41 -7.0467e-41 -1.3007e-41
000320 a2 dd 00 80 fa 91 00 00 97 3e 00 00 56 3e 00 00
       -7.9507e-41 5.2367e-41 2.2453e-41 2.2362e-41
000330 40 1b 00 80 32 0b 00 80 02 dc 00 00 27 98 00 80
       -9.775e-42 -4.016e-42 7.8924e-41 -5.4582e-41
000340 0e 21 00 80 bb f7 00 00 53 ca 00 80 a6 e3 00 00
       -1.1858e-41 8.8869e-41 -7.258e-41 8.1665e-41
000350 27 04 00 80 6f f7 00 80 f1 c4 00 00 03 29 01 00
       -1.49e-42 -8.8762e-41 7.0649e-41 1.06548e-40
000360 0a ff 78 bd 52 e2 8c bc cb 87 35 bd ac 6b 62 bc
       -0.0607901 -0.017197762 -0.044318955 -0.013819616
000370 03 77 f4 3c fc 33 54 bc 71 bb 67 bc e3 53 da 3c
       0.029841905 -0.012951847 -0.014143811 0.026651328
000380 88 a5 d1 bc 58 42 20 3c f6 45 5d 3d 67 ce 28 3d
       -0.025591627 0.009781443 0.054021798 0.041212466
000390 b9 85 d9 3c cb 2f 90 3d 8f 4a 6c 3d 97 ec d8 3c
       0.026553022 0.07040366 0.057688292 0.026480002
0003a0 76 bd 9b 3d 5f 99 8f 3d 65 78 2d 3d 1d 34 cd bc
       0.07604496 0.07011675 0.042351145 -0.025049264
0003b0 81 5d 32 3d 08 a0 8b 3d 86 fa 2a bd 7d b9 f7 3c
       0.043546204 0.06817633 -0.041742824 0.030239815
0003c0 7a 69 81 3d 98 49 91 bd 57 4f 9f bc 29 4b 4d 3b
       0.06318946 -0.07094115 -0.019447012 0.0031325317
0003d0 93 33 1d bd be 44 b0 bc 00 03 f0 3a b0 57 0f bd
       -0.038379263 -0.021517154 0.0018311441 -0.034995735
0003e0 3e 5a 94 3a 28 3f 8d 3c 87 6e 2b bd ed 0a 10 bc
       0.0011318398 0.01724203 -0.041853454 -0.008791667
0003f0 c2 a3 f1 3b 3c d5 48 ba dd fe f8 bb 10 c9 d1 bc
       0.007374258 -0.0007661169 -0.0075987414 -0.02560857

residual_dense_blocks.0.dense_layers.0.conv.bias f4 [10]
000000 fe 14 3f aa 89 4c 73 a9 95 e3 52 bd d4 a9 f8 91
       -1.6971491e-13 -5.4023223e-14 -0.05148657 -3.9232166e-28
000010 24 06 ba a8 c8 1f 52 b3 c3 4d 1c bd 67 29 6d be
       -2.0652811e-14 -4.892334e-08 -0.038160097 -0.23160325
000020 c3 ec ba bd d8 74 08 be
       -0.0912719 -0.13325822

residual_dense_blocks.0.dense_layers.1.conv.weight f4 [10, 22, 3, 3]
000000 a9 de 53 b8 a4 74 81 b8 bc 27 6a b8 30 2f b6 b5
       -5.051369e-05 -6.172925e-05 -5.5826953e-05 -1.357379e-06
000010 3f 14 54 b6 d5 85 56 37 b4 aa fd 36 3c 01 aa 36
       -3.1602247e-06 1.2786554e-05 7.55986e-06 5.0665385e-06
000020 53 0b 2f 37 0e e4 fa b9 f4 f5 95 b8 72 4a 67 39
       1.04334495e-05 -0.0004785363 -7.150686e-05 0.0002205761
000030 0c 28 81 b9 c7 64 08 39 8c b6 b2 39 8c 4e f6 b8
       -0.00024634635 0.00013007513 0.00034086814 -0.000117448246
000040 07 28 05 39 b8 58 82 39 c5 e7 04 39 03 40 51 39
       0.0001269878 0.00024861633 0.00012674842 0.0001995564
000050 ee 79 f3 34 d5 82 8c 38 42 2a d9 b7 0a 90 ff b7
       4.5350993e-07 6.7000896e-05 -2.5888094e-05 -3.0465442e-05
000060 54 54 99 b8 92 58 44 b9 da d3 31 b8 fe a6 97 36
       -7.311316e-05 -0.00018725012 -4.239739e-05 4.519591e-06
000070 e4 82 90 38 bc 84 e4 b6 89 57 06 37 8f a2 d3 37
       6.890835e-05 -6.810382e-06 8.007403e-06 2.5228857e-05
000080 45 90 ab b7 b9 1e 85 37 b2 98 94 37 9a ae 02 b7
       -2.045197e-05 1.5869142e-05 1.771408e-05 -7.789256e-06
000090 1f 43 4f b5 35 55 aa 35 3a 24 12 36 ae 52 9d b5
       -7.7211183e-07 1.2690786e-06 2.1776782e-06 -1.1721474e-06
0000a0 c4 c2 df 34 ef b6 31 36 9f d7 04 b3 2b 72 bc b4
       4.1678697e-07 2.6481537e-06 -3.092975e-08 -3.5100797e-07
0000b0 85 83 2b 35 97 d6 1f b8 e6 dd 8b b8 51 ab 2c b8
       6.389385e-07 -3.8108406e-05 -6.669368e-05 -4.1167546e-05
0000c0 e8 8d 04 b8 d2 f3 1c b8 53 4d 08 b7 9e 7d 19 37
       -3.1603413e-05 -3.7420374e-05 -8.124235e-06 9.148758e-06
0000d0 f0 c6 44 37 ad b7 a0 37 ed 03 b7 35 b9 56 56 35
       1.1728829e-05 1.9159017e-05 1.3635705e-06 7.984741e-07
0000e0 d7 50 bd 35 62 7c 2c 35 bd 09 86 33 55 96 0e 35
       1.4105125e-06 6.4255994e-07 6.2416326e-08 5.3117884e-07
0000f0 3f ee 58 35 ae c4 29 35 44 59 7f 35 98 b2 ac 39
       8.0812964e-07 6.324361e-07 9.51248e-07 0.0003293946
000100 5c 63 01 3a 75 9c f8 39 7c 5e 32 3a 34 d3 47 3a
       0.0004935765 0.00047418816 0.00068042404 0.0007622719
000110 5d d0 2b 3a fb 26 a0 39 24 83 47 39 14 0e c1 38
       0.0006554181 0.0003054662 0.00019026973 9.2055794e-05
000120 0b 57 8d 38 35 89 49 38 b4 c8 a5 37 bc 3e 86 36
       6.739617e-05 4.804992e-05 1.9762992e-05 4.0008144e-06
000130 26 db 81 b5 02 a8 84 b7 86 e3 e2 35 ef 55 a2 34
       -9.67503e-07 -1.5813861e-05 1.690453e-06 3.0237376e-07
000140 e6 f0 25 b6 74 08 1f ba 66 b1 4e b9 8c 26 16 39
       -2.4727137e-06 -0.0006066628 -0.00019711777 0.00014319475
000150 cc b6 cb b9 97 ec c3 b9 79 34 c9 38 63 c2 d3 b9
       -0.00038855372 -0.00037369572 9.594201e-05 -0.00040389886
000160 6a 99 92 b9 b1 6c f1 38 8f 55 d8 b9 32 2b 04 ba
       -0.00027961592 0.00011512021 -0.00041262477 -0.0005041837
000170 b2 9a 2d ba 05 0b 51 39 05 08 17 39 54 96 08 39
       -0.00066224777 0.00019935898 0.0001440347 0.00013025972
000180 7b 4e a1 38 5f a4 2b 39 a8 90 85 39 1b c4 a5 37
       7.6916964e-05 0.00016369064 0.00025475514 1.9760852e-05
000190 ce dc b7 37 f2 85 19 37 99 86 79 b6 94 ed 36 b7
       2.191812e-05 9.150697e-06 -3.7182238e-06 -1.0903361e-05
0001a0 d4 f0 ae b6 e0 4d b5 b6 cc 5a 63 b6 bd 84 2a 36
       -5.21364e-06 -5.403286e-06 -3.3878487e-06 2.5409238e-06
0001b0 7f 04 00 00 a0 a9 00 80 5b c5 01 80 64 a6 01 80
       1.613e-42 -6.085e-41 -1.62633e-40 -1.51525e-40
0001c0 cd 17 01 00 4e 0e 01 00 0e 41 01 80 fd 5d 01 80
       1.00374e-40 9.6967e-41 -1.15173e-40 -1.25552e-40
0001d0 f2 0a 00 80 8e cd 01 80 dd 80 00 80 fd c5 00 80
       -3.926e-42 -1.65575e-40 -4.6227e-41 -7.1025e-41
0001e0 75 12 00 00 91 23 02 00 6b cd 01 80 bd ed 01 80
       6.621e-42 1.9643e-40 -1.65526e-40 -1.7712e-40
0001f0 e5 55 02 80 28 b1 00 80 85 03 11 37 07 25 09 37
       -2.14484e-40 -6.3552e-41 8.643493e-06 8.174457e-06
000200 99 ff 10 37 7c 03 d9 37 d8 e8 ce 37 1e 41 ce 37
       8.64258e-06 2.5870038e-05 2.466554e-05 2.4587436e-05
000210 de 6d 16 37 3c ab fa 36 fd 29 0d 37 3d 79 01 80
       8.966277e-06 7.470515e-06 8.414031e-06 -1.35328e-40
000220 87 52 02 80 a5 0c 01 80 3e 88 02 80 b8 61 01 00
       -2.13276e-40 -9.6371e-41 -2.32545e-40 1.2689e-40
000230 74 55 01 80 41 7d 02 00 f7 47 01 80 87 8a 01 00
       -1.2249e-40 2.28604e-40 -1.17652e-40 1.4153e-40
000240 07 df 01 00 56 19 01 00 ce 59 00 80 b9 dd 01 00
       1.71843e-40 1.00924e-40 -3.2216e-41 1.71375e-40
000250 b9 4f 00 80 ba 37 01 00 bc ce 02 00 05 9c 02 80
       -2.8599e-41 1.11826e-40 2.57833e-40 -2.3964e-40
000260 b1 60 01 80 1c 55 02 00 b2 47 01 80 f2 ee 01 80
       -1.26522e-40 2.14202e-40 -1.17555e-40 -1.77553e-40
000270 d2 87 02 80 51 76 02 80 a5 33 01 00 51 81 00 80
       -2.32394e-40 -2.26115e-40 1.10362e-40 -4.639e-41
000280 02 5f 01 00 38 a2 01 80 19 80 09 b8 57 0e 1b b8
       1.25918e-40 -1.50029e-40 -3.2782646e-05 -3.6968235e-05
000290 fe b3 24 39 52 d8 e4 b7 bc d5 ef b7 84 47 18 39
       0.00015707311 -2.728045e-05 -2.8590548e-05 0.00014522491
0002a0 87 d2 8d 36 cf 67 48 b8 30 26 e2 b8 3b e0 02 34
       4.226636e-06 -4.7780395e-05 -0.00010783633 1.2188768e-07
0002b0 88 9d 3a 33 49 d5 7c 32 f2 dc a6 2a 28 2f a8 a5
       4.3449774e-08 1.4716826e-08 2.9640835e-13 -2.917531e-16
0002c0 c1 c9 23 26 be c1 07 b1 02 48 28 b0 8d 2f dc 2e
       5.6825413e-16 -1.9755215e-09 -6.1220373e-10 1.00128884e-10
0002d0 10 c1 87 34 f7 e6 44 36 8b 7d fd 36 fb f0 de 36
       2.528618e-07 2.9340715e-06 7.5546027e-06 6.6441694e-06
0002e0 b2 3b 2f 37 73 bf 6c 37 1d ff 12 38 4f 97 fe 37
       1.0444712e-05 1.4111271e-05 3.5046705e-05 3.0349618e-05
0002f0 6b e4 ed 37 fc f8 51 37 1e b8 77 37 e9 85 61 36
       2.8358967e-05 1.2515342e-05 1.4765215e-05 3.3605559e-06
000300 45 67 53 b7 80 d5 c2 b6 ca 52 93 33 aa 2d 83 b7
       -1.2600624e-05 -5.806505e-06 6.86028e-08 -1.5637681e-05
000310 89 15 c4 b6 fc b3 70 35 f5 c3 00 80 8b da 00 80
       -5.843762e-06 8.966888e-07 -7.0296e-41 -7.8398e-41
000320 92 de 00 00 39 61 00 80 6e 11 00 00 7e 27 00 00
       7.9843e-41 -3.4877e-41 6.253e-42 1.4167e-41
000330 eb 15 00 80 b6 af 00 80 cd 03 00 80 f3 3e 00 00
       -7.863e-42 -6.3033e-41 -1.363e-42 2.2582e-41
000340 10 57 00 80 4a 48 00 80 ab b1 00 00 f2 51 00 80
       -3.1232e-41 -2.5932e-41 6.3735e-41 -2.9396e-41
000350 f2 66 00 80 d3 84 00 80 dc b2 00 80 0b a8 00 80
       -3.693e-41 -4.7648e-41 -6.4163e-41 -6.0282e-41
000360 14 af 00 80 bd 41 00 80 bd 5a 00 80 71 7f 00 00
       -6.2806e-41 -2.3582e-41 -3.2551e-41 4.5717e-41
000370 04 9f 00 00 54 12 00 80 bb 06 00 00 e5 4b 00 80
       5.7044e-41 -6.575e-42 2.414e-42 -2.7226e-41
000380 cb 51 00 00 77 57 00 80 f8 c6 00 00 4b 84 00 80
       2.9342e-41 -3.1376e-41 7.1377e-41 -4.7458e-41
000390 6b 43 00 80 fa cc 00 80 47 9d 00 80 fb 85 00 80
       -2.4185e-41 -7.3532e-41 -5.642e-41 -4.8063e-41
0003a0 49 dd 00 80 03 d1 00 00 e2 a4 00 00 c2 b1 00 00
       -7.9382e-41 7.4979e-41 5.9149e-41 6.3767e-41
0003b0 47 a6 00 80 11 4c 00 00 eb e5 00 80 a3 71 00 00
       -5.9649e-41 2.7287e-41 -8.2479e-41 4.0765e-41
0003c0 f9 83 00 80 a8 49 00 80 51 22 00 80 9a 0a 00 00
       -4.7343e-41 -2.6423e-41 -1.231e-41 3.803e-42
0003d0 93 7b 00 80 9a 5d 00 80 9a 92 00 00 3f d1 00 00
       -4.433e-41 -3.3578e-41 5.2591e-41 7.5063e-41
0003e0 39 00 00 80 35 98 00 00 ff 0d 00 80 85 0b 00 80
       -8e-44 5.4602e-41 -5.021e-42 -4.132e-42
0003f0 54 bc 00 80 1e 0b 00 00 73 42 00 00 58 89 00 00
       -6.756e-41 3.988e-42 2.3837e-41 4.927e-41

residual_dense_blocks.0.dense_layers.1.conv.bias f4 [10]
000000 08 12 05 bc 8b 43 8c b0 40 16 5d 3c 44 6a b5 bb
       -0.008121975 -1.0205538e-09 0.013494074 -0.0055363495
000010 62 2b f2 bd a4 b7 3a be 5c eb 8d bd 6d 6f e6 87
       -0.11824681 -0.18234116 -0.06929657 -3.4672044e-34
000020 8e df 13 ac 98 45 25 bc
       -2.1014054e-12 -0.010087393

residual_dense_blocks.0.dense_layers.2.conv.weight f4 [10, 32, 3, 3]
000000 36 34 83 b8 02 10 58 b9 7d c4 df b8 3c 39 50 b9
       -6.256292e-05 -0.00020605329 -0.000106700674 -0.00019857747
000010 0c 23 9e b8 68 f1 12 b8 75 e7 e9 b8 4f 53 c2 b6
       -7.540555e-05 -3.503394e-05 -0.00011153418 -5.791349e-06
000020 9a c4 6a 38 82 74 92 ba 97 d6 75 ba 4e f0 b3 b9
       5.5973047e-05 -0.0011173638 -0.00093779847 -0.00034320581
000030 72 fa 85 ba ff 29 5a ba 18 22 94 b9 27 ef 69 ba
       -0.0010221733 -0.0008322298 -0.00028254162 -0.0008923881
000040 f1 2e 2e ba 00 17 5c b9 a5 be 98 39 28 f3 3d 39
       -0.0006644568 -0.00020989403 0.0002913374 0.00018115027
000050 a6 3a 27 39 ad d8 82 3a 06 eb 99 39 97 b9 0c 39
       0.0001594821 0.0009982787 0.0002935754 0.00013420578
000060 3f 82 41 3a c9 b7 65 b7 2a 2d 00 ba 9e 9c 8b 39
       0.0007381774 -1.36922545e-05 -0.00048895425 0.00026628835
000070 10 d5 ee 38 d4 f1 b7 b9 07 fc af 39 5a ae a5 38
       0.0001138841 -0.00035084656 0.00033566376 7.9002886e-05
000080 d4 ad ec b9 52 4d fa 39 ce 56 5d 39 6c 94 da b9
       -0.0004514294 0.00047741324 0.0002110854 -0.00041690783
000090 c3 fa 85 b7 bf d1 37 b8 9a f8 5c b7 16 86 37 b7
       -1.5971606e-05 -4.382594e-05 -1.3170904e-05 -1.0938869e-05
0000a0 cd 91 4b b7 42 92 18 b7 04 be e1 b6 b5 3e 53 b6
       -1.213369e-05 -9.093959e-06 -6.7276433e-06 -3.147795e-06
0000b0 e5 7e 8b b4 bd 2b 08 3a 1a 5e f1 b7 30 a3 81 b9
       -2.5983095e-07 0.0005194506 -2.8773258e-05 -0.00024726382
0000c0 9f 08 64 37 2a 64 1d b7 ca 08 c9 b9 b6 5d 81 38
       1.3591866e-05 -9.3812505e-06 -0.00038344256 6.168654e-05
0000d0 c1 a4 29 37 19 d0 ae b8 2e e5 2a 35 69 93 d6 34
       1.0111545e-05 -8.335728e-05 6.3663435e-07 3.996786e-07
0000e0 d5 a7 30 b2 bb 5c 65 b1 c9 f4 51 35 15 fd 2e b1
       -1.0282709e-08 -3.3376597e-09 7.8214777e-07 -2.5464193e-09
0000f0 16 1e 95 34 57 a9 36 34 34 f5 bc 32 ec cf bf 39
       2.7775303e-07 1.7011676e-07 2.1997586e-08 0.00036585273
000100 22 57 67 39 ab 3e 97 b9 06 99 79 3a a6 2c 64 3a
       0.00022062336 -0.00028847656 0.00095213985 0.0008704163
000110 52 47 15 3a 0f 09 18 3a 91 91 91 39 6f ab 3e 38
       0.00056945265 0.00057996897 0.0002776501 4.545919e-05
000120 7f 7e e1 38 7f 5e 15 38 d6 3e 3f b9 5f 4e 82 38
       0.00010752398 3.5612375e-05 -0.00018238588 6.213481e-05
000130 cf 9e cd b6 00 cb 5b b9 8d 9a 15 b8 6b 97 5f b7
       -6.127964e-06 -0.00020961091 -3.5668305e-05 -1.33270905e-05
000140 71 e2 8e b9 6d 1b 2b b9 32 c7 47 ba c5 d6 ee 3a
       -0.00027253063 -0.00016318048 -0.000762093 0.0018221965
000150 a1 6d 3b 3a 79 d1 44 ba 70 3d 54 3a 58 a5 82 3a
       0.000714982 -0.00075080205 0.0008096313 0.0009967489
000160 7b 77 1a ba 2a 1e 6d 38 3d 2e aa ba d5 ce 1d ba
       -0.0005892438 5.6533296e-05 -0.0012983751 -0.0006019895
000170 a0 7e 73 ba e6 93 cd ba b4 be 49 ba 48 c1 43 ba
       -0.0009288583 -0.0015684336 -0.00076959585 -0.0007467461
000180 59 3d 90 ba b4 5e d0 b9 c9 6f 87 b8 33 cf db 38
       -0.0011004611 -0.0003974341 -6.458123e-05 0.000104813276
000190 20 0d ae 38 e9 12 d3 38 45 c1 40 38 9a 6c 42 38
       8.299411e-05 0.00010064786 4.5956363e-05 4.6354347e-05
0001a0 ba c7 a7 38 01 61 35 38 4c 1d e3 37 92 57 b3 38
       8.0003825e-05 4.3244105e-05 2.7074151e-05 8.5516964e-05
0001b0 0d 04 02 00 b1 ca 01 00 ee f4 00 00 90 5d 01 80
       1.85124e-40 1.64547e-40 8.7864e-41 -1.254e-40
0001c0 37 29 01 00 78 4c 01 00 e3 6b 01 80 a3 26 01 00
       1.0662e-40 1.19267e-40 -1.30538e-40 1.05696e-40
0001d0 51 f8 00 00 b1 fc 00 80 5f 7f 01 80 25 a3 01 00
       8.9079e-41 -9.0649e-41 -1.37528e-40 1.50361e-40
0001e0 65 15 02 80 d0 32 01 80 ee 53 00 80 a7 3a 01 00
       -1.91346e-40 -1.10064e-40 -3.0108e-41 1.12876e-40
0001f0 8c 31 00 80 18 12 00 00 c3 a8 84 ba ee 8d bd b9
       -1.7774e-41 6.491e-42 -0.0010121096 -0.00036154635
000200 b3 2b 19 ba d3 33 74 ba 6a 5f 9d b9 a0 b5 eb b9
       -0.00058429985 -0.0009315584 -0.00030016463 -0.00044958014
000210 38 cd 66 ba 86 39 b0 b9 ec 95 ea b9 a4 5e 01 00
       -0.00088043837 -0.00033612194 -0.00044743659 1.25786e-40
000220 91 a3 00 00 a0 96 01 00 d2 5b 00 80 78 3a 02 00
       5.8677e-41 1.4587e-40 -3.2939e-41 2.04646e-40
000230 94 31 02 80 d5 5f 02 80 69 d6 01 00 cb 62 01 00
       -2.01456e-40 -2.18049e-40 1.68751e-40 1.27276e-40
000240 68 f8 00 00 a2 ce 00 00 bd 5b 01 00 8f 5c 02 80
       8.9111e-41 7.4126e-41 1.24745e-40 -2.16875e-40
000250 73 8d 01 80 a4 12 00 00 88 91 01 80 ae 96 01 80
       -1.42578e-40 6.687e-42 -1.44042e-40 -1.45889e-40
000260 ef 06 01 80 04 8c 00 00 7b 8a 02 80 ce 77 00 80
       -9.4323e-41 5.0228e-41 -2.33348e-40 -4.2978e-41
000270 2d 1c 01 00 96 31 02 00 3e 29 02 80 94 57 00 00
       1.01943e-40 2.01459e-40 -1.98466e-40 3.1417e-41
000280 a4 a7 00 80 a0 3c 00 80 54 74 0b bb a8 55 30 bb
       -6.0138e-41 -2.1748e-41 -0.0021279054 -0.0026906524
000290 99 de 07 bb 1c d0 13 bb 95 2a 50 bb b7 3c 0f bb
       -0.0020732044 -0.0022554463 -0.0031763662 -0.0021856257
0002a0 48 74 11 bb a0 03 5c bb e1 9a 0c bb 6c 91 a4 b0
       -0.0022194553 -0.0033571497 -0.002145462 -1.1973902e-09
0002b0 ce 2c 80 b3 63 fe b2 b3 23 e7 52 31 37 00 b9 b2
       -5.9686144e-08 -8.3350436e-08 3.0690408e-09 -2.1536932e-08
0002c0 df 0c 6f b2 9e 53 e1 b4 18 e5 48 b5 f8 0f 3c b5
       -1.39145575e-08 -4.1970355e-07 -7.483918e-07 -7.0058695e-07
0002d0 82 dd d3 b9 7a 2b 35 ba 48 92 82 ba 3f 20 92 b9
       -0.00040410092 -0.00069110806 -0.0009961808 -0.00027871315
0002e0 fc 26 2b ba 4b 52 62 ba d6 61 0e b9 f0 41 06 ba
       -0.00065289414 -0.00086334784 -0.00013578622 -0.000512152
0002f0 a1 df 0b ba 81 ca e2 b9 6c 67 8c b9 bd b3 96 b8
       -0.00053357525 -0.00043256956 -0.00026779936 -7.186036e-05
000300 82 de 35 ba a5 bc 92 b9 c7 d8 8b b8 d5 86 4d ba
       -0.00069377583 -0.0002798784 -6.6684144e-05 -0.0007840221
000310 40 ad 80 b9 82 96 83 b8 3a 53 6a aa 94 bf 01 aa
       -0.00024543144 -6.274601e-05 -2.081225e-13 -1.1523969e-13
000320 f7 b3 e5 28 75 2f fc ac dd 10 96 ac 26 32 76 aa
       2.5502155e-14 -7.1675396e-12 -4.2651286e-12 -2.1866588e-13
000330 a7 78 80 2c e1 ba f3 2c 2e b0 d0 2c 50 cd 00 80
       3.651374e-12 6.927223e-12 5.9312754e-12 -7.3652e-41
000340 e4 7a 00 80 6b fa 01 80 79 26 00 00 62 3b 01 00
       -4.4085e-41 -1.81669e-40 1.3801e-41 1.13138e-40
000350 f7 ec 00 80 97 9f 01 00 6d 9e 01 80 27 30 01 00
       -8.5007e-41 1.49086e-40 -1.48668e-40 1.0911e-40
000360 3e 97 c9 ba 5a 79 55 ba fe e0 a0 ba e3 13 d4 ba
       -0.0015380157 -0.0008143388 -0.0012274084 -0.0016180243
000370 7b 05 8a ba 24 ae c1 ba b0 5d ad ba 75 71 8f ba
       -0.0010530198 -0.0014776629 -0.0013226774 -0.0010943847
000380 d9 18 d8 ba 54 a3 00 00 dd 43 00 80 33 9b 01 80
       -0.0016486897 5.8591e-41 -2.4345e-41 -1.4751e-40
000390 40 c0 00 80 a1 82 02 80 91 00 02 00 fa 62 00 80
       -6.8966e-41 -2.30532e-40 1.83874e-40 -3.5506e-41
0003a0 af 1b 00 00 5a 65 01 00 70 56 00 ba 18 ea c5 b7
       9.931e-42 1.28194e-40 -0.00048956927 -2.3593238e-05
0003b0 fc 86 29 36 18 12 0a ba 11 2a a8 b7 9e 5e 10 36
       2.5261534e-06 -0.00052669784 -2.004675e-05 2.1512747e-06
0003c0 75 2c ff b9 e5 e8 8f b7 73 90 ce 35 af b0 f6 ba
       -0.00048670513 -1.7155378e-05 1.5390236e-06 -0.0018820966
0003d0 87 c0 36 ba 28 4a 0f ba 5e 59 e4 ba 0f 60 14 ba
       -0.0006971438 -0.0005466067 -0.0017421653 -0.0005660066
0003e0 fb fe c8 b9 7a 8c c1 ba 9f cc 01 ba 5c f9 cd b9
       -0.00038336948 -0.0014766597 -0.00049514504 -0.00039286434
0003f0 b2 73 e3 b5 af 6b 61 b6 1a 9d b7 b6 04 6c 69 b6
       -1.694649e-06 -3.3590293e-06 -5.472114e-06 -3.478258e-06

residual_dense_blocks.0.dense_layers.2.conv.bias f4 [10]
000000 d1 c0 6f bc b0 d4 33 a9 cd 17 50 ba cf 0a 89 bd
       -0.014633373 -3.993046e-14 -0.0007938117 -0.06691515
000010 20 22 fa bc 1e d2 47 bb 74 56 99 3d 26 72 af b7
       -0.03053385 -0.003049023 0.07487193 -2.091478e-05
000020 7a 96 8d 9b 41 a6 86 bb
       -2.3423736e-22 -0.0041091745

residual_dense_blocks.0.dense_layers.3.conv.weight f4 [10, 42, 3, 3]
000000 41 0a 31 39 23 53 3c ba 7e 29 89 38 0a 01 d0 39
       0.00016883855 -0.0007184019 6.5403976e-05 0.00039673626
000010 0b 5b 0e ba a6 ec 98 39 9d a2 a7 b8 f0 ad 2c ba
       -0.00054304366 0.00029168016 -7.9934696e-05 -0.0006587198
000020 a6 6a 90 38 cb 76 86 ba d9 60 06 bb 8d a4 b4 ba
       6.88632e-05 -0.0010258792 -0.0020504503 -0.001378195
000030 44 90 0e b9 d9 94 9a ba 53 af 0d ba d8 ff 96 3a
       -0.00013595918 -0.0011793628 -0.00054048485 0.0011520339
000040 63 93 cb 37 95 47 1c 3a ee c4 17 3b a5 a7 15 ba
       2.4268118e-05 0.0005961594 0.002315815 -0.000570888
000050 f2 73 93 3a 6b 53 e6 3a 0d a5 3d ba 05 14 91 3a
       0.0011249764 0.0017572468 -0.00072343723 0.0011068588
000060 a9 bf 25 3b 68 f6 0a 3a 1e 6e 36 3b e4 3e 8a 3b
       0.002529124 0.00053009996 0.002783663 0.004218923
000070 ce 20 04 b9 64 30 a3 3a f6 e4 43 3b be 38 f9 b9
       -0.00012600722 0.0012450335 0.002989111 -0.00047535257
000080 58 bd d6 39 9e aa a8 3a 45 46 85 ba 36 08 e1 b9
       0.00040958333 0.0012868231 -0.0010168037 -0.00042921462
000090 e3 b0 d7 b8 7d 9b 53 b8 05 9f cf 39 d7 29 f3 b8
       -0.000102849466 -5.045113e-05 0.00039600595 -0.00011594936
0000a0 76 6c 91 b8 39 9b bc 38 df 1a 31 b9 de 1a 75 b8
       -6.934341e-05 8.993451e-05 -0.00016890046 -5.8437574e-05
0000b0 14 df d3 b8 1d 9f 8c 3a e4 3c 13 b9 eb 6a e2 39
       -0.000101028156 0.0010728572 -0.00014041696 0.0004318574
0000c0 7e ec 3c 3a 6f a1 db 39 15 56 2c 3a ad 5c 9f 38
       0.0007206871 0.00041891212 0.00065741065 7.598973e-05
0000d0 ce 4f bf b9 39 69 00 b9 db 40 36 38 b4 1a 55 38
       -0.00036489818 -0.0001224623 4.3452583e-05 5.0808027e-05
0000e0 65 f4 0d 36 35 ed 72 38 7b 44 29 39 06 6b 62 36
       2.1152894e-06 5.7918212e-05 0.00016142607 3.373892e-06
0000f0 4e be c8 38 e3 aa 9a 39 01 77 a0 38 9d 1f bc 3a
       9.57219e-05 0.0002950049 7.651561e-05 0.0014352683
000100 da 44 ea 3a 84 5e 6a 3a 19 14 a9 3a d4 79 ba 3a
       0.0017873303 0.00089404755 0.0012899666 0.0014226981
000110 a0 fb 10 3a 4c 6a 4e 3a c0 55 44 3a 6a e7 64 38
       0.0005530659 0.0007874116 0.00074895844 5.4574957e-05
000120 d6 c3 b4 38 9f 58 70 38 38 89 d6 ba f6 22 90 39
       8.619546e-05 5.7302994e-05 -0.0016367799 0.00027491868
000130 56 99 78 3a 1b 97 70 ba 3d e4 43 b9 4f a9 c9 39
       0.0009483298 -0.000917779 -0.00018681675 0.00038463852
000140 22 50 4b ba fd 8e f4 38 3a 02 6d 3a d0 65 23 3b
       -0.0007755776 0.0001166146 0.00090411643 0.002493251
000150 86 5f e3 39 e0 aa d4 3a 40 c3 73 3b 8f 8b 79 3a
       0.00043367984 0.0016225241 0.0037195235 0.0009519392
000160 7b 61 07 3b 6d ca 90 3b 10 d4 54 bb 8e 38 03 bb
       0.0020657468 0.0044186623 -0.0032475032 -0.0020022723
000170 72 b9 01 bb 42 69 4c bb 2a f3 1d bb 04 2f c9 ba
       -0.0019794372 -0.0031190668 -0.0024101236 -0.0015349095
000180 56 d0 35 bb bc b7 7c bb 95 1c 0d ba 37 10 ea 3a
       -0.0027742586 -0.0038561663 -0.0005382982 0.0017857616
000190 69 05 bc 3a 73 0f cf 39 2c 01 09 3b 91 40 a9 3a
       0.0014344874 0.00039493627 0.002090524 0.0012912919
0001a0 fd 8d 54 3a 34 c0 cd 3a 53 c9 09 3a 6d 67 57 3a
       0.0008108316 0.001569754 0.0005256135 0.0008217011
0001b0 2f 36 01 00 b6 15 01 80 e3 13 00 00 2f af 00 80
       1.11273e-40 -9.9624e-41 7.134e-42 -6.2844e-41
0001c0 af 57 01 00 0d 37 01 00 5a 7b 00 00 70 5a 01 80
       1.2329e-40 1.11584e-40 4.425e-41 -1.24278e-40
0001d0 e7 52 01 80 8f 59 02 80 4a 03 01 00 15 46 02 00
       -1.21575e-40 -2.15799e-40 9.3015e-41 2.08812e-40
0001e0 c2 ac 00 80 df 7e 02 00 d5 2d 00 00 76 28 02 00
       -6.1974e-41 2.29184e-40 1.6441e-41 1.98186e-40
0001f0 5c 9e 01 00 8f 95 00 00 a5 53 69 bb ab 92 46 bb
       1.48644e-40 5.3652e-41 -0.0035602835 -0.0030299823
000200 79 a4 3d bb ea 92 7e bb 72 3f 63 bb 90 67 5b bb
       -0.0028937145 -0.0038844892 -0.0034675268 -0.0033478476
000210 4b f0 6b bb cb e3 57 bb 95 9d 4d bb 25 4d 01 00
       -0.003600138 -0.0032942172 -0.0031374444 1.1951e-40
000220 7b 51 00 00 24 36 01 00 91 ce 01 80 20 39 01 00
       2.923e-41 1.11257e-40 -1.65938e-40 1.12328e-40
000230 b1 f4 00 80 c6 0b 01 80 07 84 02 80 0e e7 01 80
       -8.7779e-41 -9.6059e-41 -2.31033e-40 -1.74722e-40
000240 44 b5 01 00 4c 8e 01 00 87 09 00 80 b7 93 00 00
       1.56861e-40 1.42882e-40 -3.418e-42 5.299e-41
000250 d0 36 02 80 14 c3 00 00 d3 86 01 00 80 74 00 80
       -2.03334e-40 6.9981e-41 1.40201e-40 -4.1792e-41
000260 1a 0c 01 80 fc 3e 01 80 05 69 02 00 91 a8 01 00
       -9.6177e-41 -1.1443e-40 2.21345e-40 1.52306e-40
000270 a4 99 01 00 04 b4 01 00 4d 32 02 00 b3 f3 01 00
       1.46951e-40 1.56413e-40 2.01716e-40 1.79258e-40
000280 b9 63 02 00 2e 21 02 80 21 15 0c bb dd 13 12 bb
       2.19445e-40 -1.95574e-40 -0.0021374898 -0.0022289671
000290 79 6b 63 bb 4c ee 1b bb 16 da 32 bb 0e b8 6f bb
       -0.003470151 -0.002379316 -0.0027290634 -0.003657821
0002a0 32 7e 34 bb 95 5b 54 bb 6e 56 84 bb c6 d6 dd 39
       -0.0027541039 -0.003240322 -0.0040386235 0.00042312423
0002b0 2d c4 e3 39 7e 9b a5 39 4d b1 54 3a 9b 12 79 3a
       0.00043442976 0.00031587103 0.0008113578 0.00095013686
0002c0 4f 67 61 3a 03 f1 c1 39 39 55 e4 39 bf 69 c3 39
       0.0008598463 0.00036991396 0.00043551045 0.00037272085
0002d0 b2 55 1d bb e5 cd 0f bb d7 79 ca ba a8 9a d2 ba
       -0.0024007377 -0.002194279 -0.0015447688 -0.001606782
0002e0 30 e2 f1 ba 86 be a7 ba 5b 64 48 ba 37 40 a6 ba
       -0.001845425 -0.0012797869 -0.00076443487 -0.0012683932
0002f0 f5 6c 90 ba 30 2f ae ba d7 f2 f2 ba 59 93 8e ba
       -0.00110188 -0.001328921 -0.0018535507 -0.0010877653
000300 cf 10 01 bb 0b 59 f8 ba 6a a0 95 ba fa 5d 14 bb
       -0.0019693857 -0.0018947435 -0.0011415605 -0.0022639022
000310 d7 0f 00 bb a3 4f 95 ba fa fd b2 1c fe 64 c6 1d
       -0.0019540691 -0.0011391531 1.1844703e-21 5.2514587e-21
000320 da cd 03 1c 31 22 6a 2a 0e 98 b8 2a 6e ff b9 2a
       4.361032e-22 2.0795238e-13 3.2790475e-13 3.3039841e-13
000330 dc 3f 3f b1 cc 99 ee b0 03 21 8c b0 ec 88 00 80
       -2.7830458e-09 -1.7360491e-09 -1.0195723e-09 -4.9118e-41
000340 22 a9 00 00 89 70 01 80 90 02 00 80 a7 05 01 00
       6.0673e-41 -1.32206e-40 -9.19e-43 9.3863e-41
000350 28 85 00 00 cc b7 01 00 64 b8 01 00 43 c3 00 80
       4.7767e-41 1.5777e-40 1.57982e-40 -7.0047e-41
000360 f8 a1 d2 bb b3 30 a8 bb 93 a8 92 bb 42 73 c6 bb
       -0.0064279996 -0.0051327585 -0.004475662 -0.0060562203
000370 4e 60 a3 bb ff c0 9c bb 99 e7 be bb 3c 8d 9a bb
       -0.0049858456 -0.004783749 -0.0058259484 -0.0047165435
000380 f7 82 98 bb ee 5b 00 00 ce 39 00 00 14 f8 00 80
       -0.004654284 3.2978e-41 2.0736e-41 -8.8994e-41
000390 6b 5e 00 00 64 22 02 00 fc 5c 02 00 ca 61 01 80
       3.3871e-41 1.96008e-40 2.17028e-40 -1.26916e-40
0003a0 68 a5 01 80 a1 6b 00 00 ee 5a 0a b9 b0 88 90 b9
       -1.51172e-40 3.861e-41 -0.0001319458 -0.0002756766
0003b0 96 a9 5e b9 55 16 5a b9 5b d2 ba b9 30 a6 c2 b9
       -0.00021234746 -0.0002079842 -0.00035633412 -0.00037126383
0003c0 98 57 ad b9 34 4b e7 b9 5b a7 03 ba 72 44 bf ba
       -0.00033062394 -0.00044115784 -0.00050221913 -0.0014592542
0003d0 a6 f2 26 bb e9 e2 24 bb 94 a3 aa ba 9d c9 15 bb
       -0.002547422 -0.0025159663 -0.0013018721 -0.0022855767
0003e0 20 ec 13 bb 37 28 81 ba 7e 36 10 bb 72 f4 f1 ba
       -0.0022571161 -0.0009853904 -0.0022005136 -0.0018459691
0003f0 c6 08 a3 38 ed 18 83 38 a3 45 6e 38 1d 31 1f 3a
       7.77408e-05 6.2512096e-05 5.6808476e-05 0.0006072687

residual_dense_blocks.0.dense_layers.3.conv.bias f4 [10]
000000 28 be 1f bc 8c dc 08 bb 81 b2 cf bb 5c 19 6c bb
       -0.009749927 -0.002088341 -0.006338418 -0.0036025858
000010 45 c0 23 bc 22 c3 f5 bd 0c 20 61 b9 53 66 27 bc
       -0.009994571 -0.12000109 -0.0002146961 -0.010217267
000020 b0 af 29 be c6 86 b9 bb
       -0.16570926 -0.005661818

residual_dense_blocks.0.dense_layers.4.conv.weight f4 [10, 52, 3, 3]
000000 95 22 d4 bc 0e d6 8e 3d ff 74 4e bd e2 ea 15 3c
       -0.025895396 0.069744214 -0.050404545 0.009150239
000010 b8 92 56 bb d4 ab 98 bc b8 08 0e ba 99 96 69 bd
       -0.003274126 -0.018636622 -0.00054181693 -0.057028387
000020 87 39 19 3d 47 d2 ab bc 0e 2f c8 bb b4 fd 01 3c
       0.037408378 -0.020974291 -0.006109125 0.007934023
000030 41 61 f4 3c bd 3a 99 3c 43 81 e5 3c d4 67 3b 3c
       0.02983153 0.018704766 0.028015738 0.011438329
000040 ab 4f 58 3c 73 53 d2 3c 45 49 19 3c 35 51 46 be
       0.013202588 0.025674557 0.009355848 -0.19366916
000050 4e 73 3d 3d 16 6a 6d bd 30 ee 11 3d b8 1d 81 3c
       0.04625254 -0.0579625 0.035627544 0.015761241
000060 da 43 03 be 9e a9 ad 3d 09 b6 97 bd e7 f0 f3 3c
       -0.12818852 0.084796175 -0.07407767 0.029777957
000070 e0 35 93 3d 4e bd 90 bc 5c 9a 0d bd 34 69 4e 3d
       0.0718801 -0.017668393 -0.034571037 0.0503933
000080 82 af 89 bd 51 6f 6c bc f8 26 8a 3d e2 46 3c bd
       -0.067229286 -0.014430837 0.06745714 -0.045966037
000090 ad ab 09 3d 05 5e 83 3d 4d f8 87 3b 2d a3 a9 bc
       0.03361099 0.06414417 0.004149473 -0.020707691
0000a0 6f 81 37 3d 0f 27 fc bc 6b 69 86 bc 9a d1 14 3d
       0.044801172 -0.030780343 -0.01640769 0.036332704
0000b0 a9 a1 d5 3b 86 fe 3b bd 39 2f e9 3d d3 b8 0c 3d
       0.0065195155 -0.04589703 0.1138596 0.03435595
0000c0 f0 ae 91 bd 06 6b 39 3d f2 1c 8c bc 51 dd 08 bd
       -0.07113445 0.04526808 -0.017103646 -0.03341419
0000d0 83 c8 77 ba 5b 10 89 3d c9 91 43 bd 0c 76 de 3b
       -0.0009452181 0.06692573 -0.047746453 0.0067889746
0000e0 02 ba 77 bb aa 87 72 bd f2 93 b2 3c fd ee 08 3b
       -0.0037800078 -0.05921141 0.021799061 0.0020894401
0000f0 b9 62 1d bd 8f 33 04 3c 2b b4 a9 3c 6f 49 db 3b
       -0.038424227 0.008068933 0.020715794 0.0066921036
000100 24 e3 35 bd cc f4 1f bd bf a6 81 bd ff f6 c1 bd
       -0.04440607 -0.039051816 -0.063306324 -0.09470939
000110 2c f7 d3 bd 87 d0 01 bd 6e d8 4a bc ed d8 6d bd
       -0.10349879 -0.031693008 -0.012380702 -0.058068205
000120 dc e1 b8 3c 68 5b 1f 3d 39 b7 6a 3d 17 7c 32 3c
       0.022568636 0.03890553 0.05730364 0.010893843
000130 a5 00 66 bc 80 3c 1f 3d c8 24 94 3d e9 fa 18 3d
       -0.01403824 0.038876057 0.07233578 0.03734866
000140 0e 57 08 3d 46 6b 16 3d cf 50 5e be 14 51 aa 3d
       0.033286147 0.036723398 -0.21710514 0.08316246
000150 80 4e f7 3c 45 3c e4 3b 49 b8 b5 bb da e2 1c bd
       0.030188799 0.0069651925 -0.00554565 -0.03830228
000160 63 a6 db 3d 88 55 6f bd 9c 02 2f be f9 b7 56 3d
       0.10725095 -0.05843118 -0.17090839 0.052421544
000170 72 58 b9 3d a7 10 1e bd 9b 93 9b bd 66 9f 89 bc
       0.09050073 -0.0385901 -0.07596513 -0.01679964
000180 5f 16 2b 3d 0a f1 d7 bd 66 7d 02 bd 1a 4d 6f bb
       0.04176938 -0.105440214 -0.03185787 -0.0036514462
000190 35 90 95 bb b8 0f 89 bc ea 1b 0e 3c 48 1e 2d bd
       -0.00456431 -0.016731128 0.008673647 -0.042265207
0001a0 dc ea 8a 3c 5d 53 60 3d 95 f2 1a bd c9 f8 2d 3d
       0.016957693 0.054767 -0.037829 0.04247359
0001b0 60 52 00 80 0c 82 00 00 3c 85 00 00 9a 0a 00 80
       -2.955e-41 4.6652e-41 4.7795e-41 -3.803e-42
0001c0 53 27 00 00 4f c1 00 80 df 6b 00 80 64 56 00 00
       1.4107e-41 -6.9346e-41 -3.8697e-41 3.0991e-41
0001d0 5d 2f 00 80 80 a6 00 00 5f 67 00 00 1c 2e 00 00
       -1.6991e-41 5.9729e-41 3.7083e-41 1.6541e-41
0001e0 66 26 00 80 fc d4 00 00 57 7d 00 00 a5 d4 00 00
       -1.3775e-41 7.6404e-41 4.4963e-41 7.6282e-41
0001f0 97 68 00 80 84 75 00 00 a7 88 c6 bc 16 90 24 bc
       -3.752e-41 4.2157e-41 -0.024235083 -0.010044118
000200 b0 db c7 bc 1d c1 65 3b d7 dc b0 bc 86 0e f7 bb
       -0.024396747 0.0035057731 -0.02158968 -0.007539573
000210 60 37 0b 3c 95 cb 1b bd d5 e3 2a ba 9b 3f 00 80
       0.008497089 -0.038035948 -0.0006518935 -2.2817e-41
000220 12 29 00 80 4b b3 00 00 3a 13 00 80 88 68 00 00
       -1.4733e-41 6.4318e-41 -6.897e-42 3.7499e-41
000230 c7 20 00 00 51 89 00 80 14 da 00 80 66 34 00 00
       1.1758e-41 -4.926e-41 -7.8232e-41 1.8797e-41
000240 15 3d 00 80 11 24 00 80 11 49 00 00 fe 96 00 00
       -2.1912e-41 -1.2938e-41 2.6211e-41 5.4166e-41
000250 c0 aa 00 80 f1 91 00 80 c1 88 00 80 47 a8 00 80
       -6.1254e-41 -5.2354e-41 -4.9058e-41 -6.0367e-41
000260 34 1b 00 00 34 b2 00 00 bc 87 00 00 b7 25 00 00
       9.759e-42 6.3927e-41 4.8692e-41 1.353e-41
000270 e0 08 00 00 0e 47 00 00 21 aa 00 80 59 28 00 80
       3.184e-42 2.549e-41 -6.1031e-41 -1.4474e-41
000280 17 9e 00 00 a4 a4 00 00 85 7e 98 3d 55 b0 c4 3c
       5.6712e-41 5.9062e-41 0.07446007 0.024009863
000290 01 23 6b bd 9f d1 e9 3c 05 0d 24 3d 1f 6f 95 3c
       -0.05740643 0.028542338 0.04005148 0.018241463
0002a0 9f 41 c8 bc 5f e2 36 3c 48 dd 97 3d bb e9 64 bd
       -0.024445353 0.0111623695 0.07415253 -0.055886965
0002b0 dd 60 38 bd 48 68 d3 bc 5d 6b 57 3d c6 87 87 3d
       -0.04501425 -0.025806561 0.052592624 0.066176936
0002c0 28 63 9a 3d 7d 7d a3 3d ce 3d a4 3d dd 29 9c 3d
       0.07538444 0.07982919 0.08019601 0.07625172
0002d0 b9 d0 32 bd f7 38 79 bd 90 d2 55 bb 96 a6 10 bd
       -0.043656085 -0.06084534 -0.0032626726 -0.03531512
0002e0 c8 7a 8f bd 64 1c ab bc d4 8b a1 bc 4c a9 90 bd
       -0.070058405 -0.020887561 -0.019719996 -0.07063541
0002f0 94 1d 02 bd 9a de 8e bd e9 6f 1a bc 8b a8 80 3d
       -0.03176649 -0.06976052 -0.0094260955 0.06282147
000300 2b 51 87 bd 07 5c 3b 3d 75 4a 9c 3d 66 ba 49 bd
       -0.066072784 0.04574206 0.07631389 -0.04925003
000310 5a 2b 1d 3d 75 b3 29 3d cc bf c5 39 4f 8a de 39
       0.03837142 0.04143091 0.00037717668 0.00042446188
000320 de 76 72 39 3b 3a 24 3a 8a f5 21 3a ae b2 75 39
       0.000231232 0.00062647805 0.0006178251 0.00023431584
000330 d0 b5 44 3a 85 ce 38 3a 95 ab 20 39 f5 b4 00 00
       0.0007503899 0.0007049817 0.00015322708 6.4915e-41
000340 3e 5a 48 00 06 1f 13 9b 8a 99 00 00 28 17 03 00
       6.644529e-39 -1.2169579e-22 5.508e-41 2.83813e-40
000350 be 87 a8 9b 73 bc 00 00 4d 92 00 80 17 2e d0 9a
       -2.788099e-22 6.7603e-41 -5.2483e-41 -8.6101246e-23
000360 66 a6 3e 3d 97 ba 7f 3c c8 76 d9 3c b8 7c 3c 3d
       0.04654541 0.015608451 0.026545897 0.04601738
000370 50 b5 09 bd 17 e3 8a 3c c9 64 d0 3c 20 2b 51 3d
       -0.03362018 0.016953988 0.025438683 0.051066518
000380 46 0c 42 3d 6b 0e ca 38 e1 db ac 37 83 8e 31 37
       0.047374986 9.634796e-05 2.0606387e-05 1.0583203e-05
000390 08 a5 17 39 35 cb 15 38 86 9c 2a 37 fc ab 05 39
       0.00014461961 3.571362e-05 1.0169233e-05 0.00012747938
0003a0 95 3f ec 37 eb 46 b8 36 b8 f4 97 bd d5 ad 58 bd
       2.8163e-05 5.4918833e-06 -0.07419723 -0.052900154
0003b0 74 41 6b bc d9 bf 6c bd 7c 31 27 bd e7 76 ac bc
       -0.014358867 -0.057800148 -0.040818676 -0.02105279
0003c0 52 6a 40 bd 81 f7 2d bd a3 ac 31 bd ae 44 15 bd
       -0.046976395 -0.042472366 -0.04337753 -0.03644245
0003d0 7d 02 ad bd 72 87 88 bc a1 01 cf bb af 35 b4 bd
       -0.0844774 -0.016666148 -0.006317333 -0.08799302
0003e0 e8 32 e0 bb b2 05 af 3c fc 4b 81 bd 8e 6a 37 3b
       -0.006842006 0.02136502 -0.06313321 0.0027987096
0003f0 35 24 9c 3c cf f7 8b 3c e3 69 05 3d d1 7c ff bc
       0.019060234 0.017085938 0.032571685 -0.031187447

residual_dense_blocks.0.dense_layers.4.conv.bias f4 [10]
000000 1c a5 f1 bd 13 49 bd 9b fc 91 54 bb ef c0 2d bc
       -0.1179907 -3.131465e-22 -0.0032435646 -0.010605081
000010 c1 fa ef b2 f7 5d 81 b5 76 d8 92 3d 8a 4c 79 3d
       -2.7937292e-08 -9.638596e-07 0.07170193 0.06086401
000020 74 8e dc bb 19 31 8d 9f
       -0.006730849 -5.979705e-20
